…
     "iopub.status.idle": "2022-12-07T14:05:12.617161Z",
     "shell.execute_reply": "2022-12-07T14:05:12.616542Z",
     "shell.execute_reply.started": "2022-12-07T14:05:12.602602Z"
    }
   },
   "outputs": [
    {
     "name": "stdout",
     "output_type": "stream",
     "text": [
      "selected_neural_network m15 mega + dropout\n",
      "Model: \"sequential_1\"\n",
      "_________________________________________________________________\n",
      " Layer (type)                Output Shape              Param #   \n",
      "=================================================================\n",
      " normalization_1 (Normalizat  (None, 42)               85        \n",
      " ion)                                                            \n",
      "                                                                 \n",
      " dense_8 (Dense)             (None, 128)               5504      \n",
      "                                                                 \n",
      " dense_9 (Dense)             (None, 256)               33024     \n",
      "                                                                 \n",
      " batch_normalization_8 (Batc  (None, 256)              1024      \n",
      " hNormalization)                                                 \n",
      "                                                                 \n",
      " activation_1 (Activation)   multiple                  0         \n",
      "                                                                 \n",
      " dense_10 (Dense)            (None, 512)               131584    \n",
      "                                                                 \n",
      " batch_normalization_9 (Batc  (None, 512)              2048      \n",
      " hNormalization)                                                 \n",
      "                                                                 \n",
      " dropout_2 (Dropout)         (None, 512)               0         \n",
      "                                                                 \n",
      " dense_11 (Dense)            (None, 1024)              525312    \n",
      "                                                                 \n",
      " batch_normalization_10 (Bat  (None, 1024)             4096      \n",
      " chNormalization)                                                \n",
      "                                                                 \n",
      " dense_12 (Dense)            (None, 1024)              1049600   \n",
      "                                                                 \n",
      " dropout_3 (Dropout)         (None, 1024)              0         \n",
      "                                                                 \n",
      " batch_normalization_11 (Bat  (None, 1024)             4096      \n",
      " chNormalization)                                                \n",
      "                                                                 \n",
      " dense_13 (Dense)            (None, 512)               524800    \n",
      "                                                                 \n",
      " batch_normalization_12 (Bat  (None, 512)              2048      \n",
      " chNormalization)                                                \n",
      "                                                                 \n",
      " dense_14 (Dense)            (None, 256)               131328    \n",
      "                                                                 \n",
      " batch_normalization_13 (Bat  (None, 256)              1024      \n",
      " chNormalization)                                                \n",
      "                                                                 \n",
      " dense_15 (Dense)            (None, 1)                 257       \n",
      "                                                                 \n",
      "=================================================================\n",
      "Total params: 2,415,830\n",
      "Trainable params: 2,408,577\n",
      "Non-trainable params: 7,253\n",
      "_________________________________________________________________\n"
     ]
    }
   ],
   "source": [
    "print(\"selected_neural_network\",selected_neural_network)\n",
…
